…
16384, dataset='ml-1m', epochs=100, layers='[64, 32,16,8]', learner='adam', lr=0.001, num_neg=4, out=1, path='Data/', reg_layers='[0,0,0,0]', train_pd_path='./Data/ratings_train.csv', verbose=1) 
Load data done [12.6 s]. #user=6040, #item=3706, #train=994169, #test=6040
__________________________________________________________________________________________________
Layer (type)                    Output Shape         Param #     Connected to                     
==================================================================================================
user_input (InputLayer)         (None, 1)            0                                            
__________________________________________________________________________________________________
item_input (InputLayer)         (None, 1)            0                                            
__________________________________________________________________________________________________
user_embedding (Embedding)      (None, 1, 32)        118592      user_input[0][0]                 
__________________________________________________________________________________________________
item_embedding (Embedding)      (None, 1, 32)        118592      item_input[0][0]                 
__________________________________________________________________________________________________
user_xz_input (InputLayer)      (None, 19)           0                                            
__________________________________________________________________________________________________
flatten_1 (Flatten)             (None, 32)           0           user_embedding[0][0]             
__________________________________________________________________________________________________
flatten_2 (Flatten)             (None, 32)           0           item_embedding[0][0]             
__________________________________________________________________________________________________
user_xz_embedding (Embedding)   (None, 19, 64)       386560      user_xz_input[0][0]              
__________________________________________________________________________________________________
u_i_con (Concatenate)           (None, 64)           0           flatten_1[0][0]                  
                                                                 flatten_2[0][0]                  
__________________________________________________________________________________________________
lstm_1 (LSTM)                   (None, 64)           33024       user_xz_embedding[0][0]          
__________________________________________________________________________________________________
add_1 (Add)                     (None, 64)           0           u_i_con[0][0]                    
                                                                 lstm_1[0][0]                     
__________________________________________________________________________________________________
dense_1 (Dense)                 (None, 128)          8320        add_1[0][0]                      
__________________________________________________________________________________________________
dense_2 (Dense)                 (None, 64)           8256        dense_1[0][0]                    
__________________________________________________________________________________________________
dense_3 (Dense)                 (None, 32)           2080        dense_2[0][0]                    
__________________________________________________________________________________________________
dense_4 (Dense)                 (None, 16)           528         dense_3[0][0]                    
__________________________________________________________________________________________________
prediction (Dense)              (None, 1)            17          dense_4[0][0]                    
==================================================================================================
Total params: 675,969
Trainable params: 675,969
Non-trainable params: 0
__________________________________________________________________________________________________
None
Init: HR = 0.1055, NDCG = 0.0487 [65.0]
Iteration 0 [62.0 s]: HR = 0.4513, NDCG = 0.2510, loss = 0.3996 [64.7 s]
…
