MLP arguments: Namespace(batch_size=4096, dataset='ml-1m', epochs=100, layers='[64, 32,16,8]', learner='adam', lr=0.001, num_neg=4, out=1, path='Data/', reg_layers='[0,0,0,0]', verbose=1) 
Load data done [11.7 s]. #user=6040, #item=3706, #train=994169, #test=6040
__________________________________________________________________________________________________
Layer (type)                    Output Shape         Param #     Connected to                     
==================================================================================================
user_input (InputLayer)         (None, 1)            0                                            
__________________________________________________________________________________________________
item_input (InputLayer)         (None, 1)            0                                            
__________________________________________________________________________________________________
user_embedding (Embedding)      (None, 1, 32)        193280      user_input[0][0]                 
__________________________________________________________________________________________________
item_embedding (Embedding)      (None, 1, 32)        118592      item_input[0][0]                 
__________________________________________________________________________________________________
flatten_1 (Flatten)             (None, 32)           0           user_embedding[0][0]             
__________________________________________________________________________________________________
flatten_2 (Flatten)             (None, 32)           0           item_embedding[0][0]             
__________________________________________________________________________________________________
concatenate_1 (Concatenate)     (None, 64)           0           flatten_1[0][0]                  
                                                                 flatten_2[0][0]                  
__________________________________________________________________________________________________
layer1 (Dense)                  (None, 32)           2080        concatenate_1[0][0]              
__________________________________________________________________________________________________
layer2 (Dense)                  (None, 16)           528         layer1[0][0]                     
__________________________________________________________________________________________________
layer3 (Dense)                  (None, 8)            136         layer2[0][0]                     
__________________________________________________________________________________________________
prediction (Dense)              (None, 1)            9           layer3[0][0]                     
==================================================================================================
Total params: 314,625
Trainable params: 314,625
Non-trainable params: 0
__________________________________________________________________________________________________
None
Init: HR = 0.0899, NDCG = 0.0426 [14.6]
Iteration 0 [23.0 s]: HR = 0.4465, NDCG = 0.2490, loss = 0.3729 [9.6 s]
…
